Assignment-3/190380_HimanshuShekharDas/minst_model.pt (torch, 973391 bytes, 8 tensors)

0.weight f4 [256, 784]
000000 67 d8 c1 bc 77 88 1f bc 4a 7b 9a ba 91 2b b3 3c
       -0.023662759 -0.009737126 -0.001178601 0.02187136
000010 07 61 03 bd 01 d8 bd 3b 01 40 bf 3b 01 10 c3 3c
       -0.032074954 0.005793572 0.0058364873 0.023811342
000020 8d 23 05 bd ce 4f 78 bc ca 58 e7 bb 13 f4 30 bc
       -0.032504607 -0.015155746 -0.007060145 -0.010800379
000030 0e 33 60 bc 8e c2 0e bd 6a c5 fb 3c 9a df bb bc
       -0.013684047 -0.03485351 0.030733783 -0.02293377
000040 ca f4 6e bb 90 f3 91 3c 45 34 37 bc d3 db b1 3c
       -0.0036461824 0.017816335 -0.011181896 0.021711266
000050 6e 86 38 bb 53 a0 0a bc 1c 8d c3 3c 65 27 b0 3b
       -0.0028156298 -0.008461076 0.023870997 0.00537579
000060 c8 1a fb bc 6e dc c0 3c 40 96 1e 3c 78 69 e4 3b
       -0.030652419 0.023542609 0.009679377 0.0069705807
000070 d5 4a b9 bc 83 db 93 3c e1 e8 43 3c 84 fb 00 3d
       -0.02261869 0.018049007 0.011957378 0.031489864
000080 28 2b ff 3c d4 bf 0e 3d 8c 18 a7 3c ec 0b 12 3d
       0.031148508 0.03485091 0.020397447 0.0356559
000090 c0 21 09 bd 7a 49 1d 3c b2 6a be bb 5b 87 5a bd
       -0.033479452 0.009600038 -0.005811059 -0.05335174
0000a0 71 94 f4 bc 99 e1 4f bd 74 5f 8d 3d 16 4f 43 bc
       -0.029855939 -0.050752256 0.06902972 -0.011920711
0000b0 c0 e7 fd bc 04 6c b0 bd a3 15 14 bd 5c cf 80 bc
       -0.030994296 -0.08614352 -0.036153447 -0.015723877
0000c0 f5 86 81 3c ca 16 05 3b ca 86 57 3c 85 21 6f 3c
       0.015811423 0.0020307773 0.013154695 0.014595394
0000d0 1e ab f9 3c 4c 29 a6 bc 80 92 1a bc 27 46 9f bc
       0.030477103 -0.020283364 -0.009434342 -0.019442631
0000e0 7a ad cc bc 6a 17 76 3c 9e 31 a3 bc a5 66 73 3c
       -0.024985064 0.015020231 -0.01992112 0.014856015
0000f0 dc 6a f8 3b 93 f2 e6 3a 7f 51 01 bd dc 10 51 bb
       0.007581098 0.00176199 -0.03157186 -0.0031900918
000100 3f 22 35 bd c7 bd d9 ba 18 54 32 3e 0c ba 18 3e
       -0.044222113 -0.0016612344 0.17414892 0.14914721
000110 2d b1 e7 3c 40 60 00 be 86 f6 86 bd c1 e9 70 be
       0.028282726 -0.12536716 -0.06589989 -0.2352667
000120 a6 56 84 be 56 74 0b be 26 2c a9 bd 82 8d 11 bd
       -0.25847358 -0.13618597 -0.08260374 -0.035535343
000130 bc 0f 0c 3c 15 5e ef bb 2d 5e a3 bd 54 bf 87 bd
       0.008548673 -0.0073049166 -0.07976947 -0.0662829
000140 42 ed 30 bd 01 c1 3e 3b e1 b3 3b 3c 46 9d 05 3d
       -0.043195017 0.0029106739 0.011456461 0.03262069
000150 3f 62 11 bd 86 99 08 3d b9 f6 ee 3d 01 80 0f 3e
       -0.035494085 0.033349536 0.11668152 0.14013673
000160 0a e5 fa bc 53 b5 bd 3b 6e 68 ac 3a bf 70 39 3e
       -0.030626792 0.005789438 0.0013153681 0.18109415
000170 54 b2 15 3e 6c 88 ea 3d e8 f4 f2 3d fb be 20 bd
       0.14618808 0.11451802 0.118631184 -0.039244633
000180 34 8b 02 bd 6a 3b 97 be ce 19 c0 be 0f a0 c0 be
       -0.031871036 -0.29537517 -0.37519687 -0.37622115
000190 29 c2 b5 be 99 a2 e6 be 02 9d 1e be e3 e1 37 3c
       -0.35499695 -0.45045927 -0.15489581 0.011223289
0001a0 37 68 5d bd c0 6f 8f be 3a c6 7b 3e 78 9e 45 3e
       -0.054054465 -0.28014946 0.24587336 0.19298732
0001b0 ca 60 15 be f6 70 84 bd ed f3 97 bd 73 38 43 bc
       -0.14587703 -0.06466858 -0.07419572 -0.011915314
0001c0 1c 5b ab bb 9c fc e0 3b 80 90 df 3d ca f5 11 3e
       -0.005229367 0.006866051 0.10916233 0.14253917
0001d0 b6 13 ad 3d 07 6a 0d 3d 37 89 00 3e 43 b3 58 3e
       0.08451025 0.034524944 0.12552343 0.21162133
0001e0 c7 b6 b9 3d c0 7f 4e bd 73 ce 43 be 83 9c a0 be
       0.09068065 -0.0504148 -0.19121723 -0.3136941
0001f0 23 3c 59 be 2e 62 6c be 09 b2 ed 3d e0 00 51 3e
       -0.21214347 -0.23084328 0.11606223 0.2041049
000200 28 50 77 3e 56 f4 1a 3e 84 31 98 3d 34 45 a2 3e
       0.24151671 0.1513227 0.07431319 0.31693423
000210 26 d3 69 3e 5f 09 c6 bc bf 1d 1a 3e 39 82 93 bc
       0.22834453 -0.02417439 0.1505041 -0.018006431
000220 0a da a9 be 49 3c 10 bf db b2 46 be 6d 89 e0 bd
       -0.33174163 -0.5634199 -0.19404165 -0.10963712
000230 f3 02 0c bd ec c7 f8 bc d0 bb 53 3e 43 05 2e 3e
       -0.0341825 -0.030368768 0.20677114 0.16994195
000240 74 a2 cc 3d fa fa 59 3e 2e 36 cc 3d 7e 8b e8 3d
       0.09991923 0.21287146 0.099712715 0.11354731
000250 3c 51 61 bd 71 00 20 be 22 b0 bf be de 1c f5 be
       -0.05500911 -0.15625168 -0.37439066 -0.47873586
000260 d0 be f1 be 8c be 56 be 85 b4 64 3e db 1a a6 3e
       -0.4721589 -0.20971125 0.22334488 0.32442364
000270 18 77 93 3c fb ec ff bd ec 6b ac bd bf ca f6 bc
       0.018001124 -0.12496372 -0.08419022 -0.030125974
000280 15 81 5e bd de 78 63 3c 16 f1 dd 3d 58 38 10 bd
       -0.05432232 0.013883797 0.10836999 -0.035209984
000290 c6 a4 c2 bd e7 9e af be 1a 8d 4f be 62 76 de bd
       -0.09504084 -0.3430092 -0.2026867 -0.108624235
0002a0 61 e3 f1 bc 6e d1 d5 bb b2 84 ac 3d 1c 6d 1b 3e
       -0.029527368 -0.00652521 0.08423747 0.1517834
0002b0 0c e4 8d 3e c7 94 b3 bd 4b ad 48 bd f2 ac 9c 3d
       0.27713048 -0.087686114 -0.04899339 0.07650174
0002c0 ce 8a 84 3d 72 82 06 be 5c 58 f6 be 4f d9 29 bf
       0.064717874 -0.13135698 -0.48114288 -0.6634721
0002d0 68 89 1e bf 92 01 dc be 84 c3 8b 3d 30 8b a8 bc
       -0.61928415 -0.42969948 0.06824401 -0.020574182
0002e0 86 f8 b6 bd e0 a1 01 bd 37 87 1b 3d fd a6 36 be
       -0.08934121 -0.031648517 0.037970748 -0.17837138
0002f0 f1 db 20 be 1b 85 77 bd 0e 3f 7f bd ed 65 97 3d
       -0.15708901 -0.060429674 -0.062315993 0.07392488
000300 3c e5 3f be 0d ee 77 be c7 9b 15 be fe ad 61 be
       -0.1873979 -0.24211903 -0.14610206 -0.22039029
000310 85 d1 a1 3c c5 0d fa 3c 17 20 97 3d 7e a6 c0 3d
       0.019753227 0.030524144 0.073791675 0.09406756
000320 e7 4d 4b 3e d5 4e 04 bc 63 02 19 be e2 2e 5d 3d
       0.19853936 -0.008075436 -0.14942317 0.05399979
000330 1f a4 f4 3c f3 57 8c bd 13 79 e2 be 49 cd 22 bf
       0.029863415 -0.068527125 -0.44232997 -0.6359449
000340 e4 b9 07 bf ad 6f 37 be 0a 3c 2a 3e 06 e7 09 3b
       -0.5301802 -0.17913695 0.16624466 0.0021042242
000350 6f 69 d1 3c 13 83 0b 3e 89 ea 11 bd d4 37 a5 bd
       0.02556297 0.1362422 -0.03562406 -0.08067289
000360 cc 7b 73 bd ac 8f 6a 3b 61 93 17 3e d6 cb 21 3d
       -0.059444234 0.0035791202 0.14802314 0.039501034
000370 e2 7b cd be 0a 61 9f be bf 42 1f be c0 86 2b be
       -0.40133578 -0.31128722 -0.15552805 -0.16750622
000380 93 4d 69 bb f8 d3 de 3c 4b 5c 8d 3d f0 5a 64 3d
       -0.0035599216 0.027200684 0.06902369 0.055750787
000390 95 15 d3 3c d5 0e 22 bd 6f b2 09 be d1 9c 10 bc
       0.025767127 -0.039564926 -0.13446973 -0.00882645
0003a0 1c 4c db bd 27 05 15 be 23 b4 9f be 14 a1 34 bf
       -0.10707876 -0.14552747 -0.3119212 -0.70558286
0003b0 7f b5 44 bf 2d 78 15 be a8 53 3c bc 54 dd e2 3d
       -0.7683944 -0.14596625 -0.011494555 0.11077371
0003c0 60 5b de 3d 9c b7 05 3e a9 91 b5 bd 9b 68 f7 bc
       0.10857272 0.13058323 -0.08865673 -0.030201247
0003d0 9b a0 ca bd a9 b2 e9 bd 5e d6 8d 3d c3 25 8a bd
       -0.09893914 -0.1141103 0.06925653 -0.06745484
0003e0 99 be ea be ec fc 8c be 0f 0e 44 be 99 e2 6d 3d
       -0.4584854 -0.27536714 -0.19145988 0.05807743
0003f0 bc bc 00 3d c6 ab 26 3e 6c 91 b1 bc 89 97 40 3d
       0.03142999 0.16276464 -0.021675788 0.047019515

0.bias f4 [256]
000000 15 a8 e7 bd 4b 85 f0 be 24 99 18 bc d8 0e c3 bd
       -0.11311356 -0.46976694 -0.009313855 -0.095243156
000010 cb dd a6 be 6d 18 a3 be 8a a8 eb 3c d4 b1 c0 3b
       -0.3259109 -0.31854573 0.02876689 0.0058805738
000020 14 6e 15 3e c2 a9 4f be be e9 4a be e8 4a dd 3d
       0.14592773 -0.20279601 -0.19815728 0.10805303
000030 54 82 88 be 20 0b aa bd f9 f1 9f bd 76 fb af be
       -0.26661932 -0.08302903 -0.078098245 -0.34371537
000040 34 3a e2 bc d8 3c 47 be 48 40 1b be 0d 35 ea bd
       -0.027615644 -0.19456804 -0.1516124 -0.114359
000050 21 26 b1 be 4a 3d b6 be e0 47 f3 be ca 4c d4 be
       -0.34599403 -0.35593635 -0.47515774 -0.41464835
000060 24 ed 46 be 31 41 b9 be cb 37 6b bd 78 54 bf 3b
       -0.194264 -0.3618255 -0.057426255 0.005838927
000070 a5 2d 13 be 8a 7a 87 be e4 01 3d be 85 1e 7e bd
       -0.14372881 -0.26460677 -0.18457752 -0.062040824
000080 1d c0 46 3e 56 f3 6d be a8 67 02 be 22 83 bf bc
       0.19409223 -0.23237357 -0.12734854 -0.023377959
000090 86 28 9f be 47 02 69 be cc 79 81 3e 06 36 84 bb
       -0.31085604 -0.22754775 0.25288236 -0.0040347604
0000a0 76 a0 5a be f2 e7 58 3b 58 62 39 be 62 fd d5 bd
       -0.21350273 0.0033097235 -0.18103921 -0.104487196
0000b0 9d 35 8b be af e7 3f be 03 73 c9 be 87 85 01 be
       -0.2718934 -0.18740724 -0.3934556 -0.12648593
0000c0 75 a0 92 be fc 45 28 bd 2a 55 ad 3e 1b 67 59 be
       -0.28638044 -0.041082367 0.33854038 -0.21230738
0000d0 b8 22 ae bd fc 2e 1d be 4a 88 92 3b 62 fb 3a 3d
       -0.08502716 -0.15349954 0.0044718133 0.045649894
0000e0 50 41 69 3c 23 53 56 be b3 30 8c bb ff c1 59 be
       0.014236763 -0.20930152 -0.0042782663 -0.2126541
0000f0 f7 6c 6e bd 05 c8 50 be 84 21 37 be b1 56 3b bd
       -0.058209386 -0.20388801 -0.17883879 -0.045736972
000100 b6 81 97 bc cd 58 5b be d1 bc 85 3d d7 06 a4 3c
       -0.018494468 -0.21420594 0.065301545 0.020022793
000110 a9 8b bd bd c4 51 82 be 9a 7a 71 be 38 c4 dd bd
       -0.09255154 -0.25453007 -0.23581925 -0.108284414
000120 84 26 86 bd 92 80 71 be c6 28 af bd 54 57 62 3e
       -0.06550315 -0.23584202 -0.08552699 0.22103626
000130 4e 09 ab 3b a8 69 3c be 0b 98 79 3d 3a 24 af bd
       0.005219615 -0.1839968 0.060936015 -0.085518315
000140 dd 8d 2a 3e 20 f6 23 3d a6 30 8e bc 0d f5 ea bd
       0.16655679 0.040029645 -0.017357182 -0.11472521
000150 a7 1f 65 be 06 f8 a5 be 5a 64 27 be 70 ee 2b bd
       -0.22375356 -0.3241579 -0.16346875 -0.04197544
000160 4a 35 88 3e 54 85 29 3e a1 1e 55 3d fd bf 62 be
       0.26603156 0.16554767 0.052031163 -0.2214355
000170 d1 d6 28 be 8a 96 b2 3d e8 f0 f2 bc 2b 99 23 3e
       -0.16488196 0.08720119 -0.029655889 0.15976398
000180 8d 64 6c bd 28 24 55 3e da da 76 be 98 74 85 be
       -0.05771308 0.20814574 -0.24106923 -0.26065516
000190 cc b8 74 be 02 3f 08 be 89 c1 ab bd 81 d3 0e 3d
       -0.2389862 -0.13305286 -0.08386523 0.034869675
0001a0 38 50 e5 bd ef c6 98 bd c2 43 11 3e 62 92 e6 bd
       -0.11196941 -0.074598186 0.14186004 -0.11258389
0001b0 5d fc 38 3e 8e 3c 53 be e9 1f c5 be 8c 88 ee 3d
       0.18065019 -0.20628569 -0.38500908 0.11647138
0001c0 07 7b 0f be e9 90 7d be 79 bb 7c be c2 e8 05 be
       -0.14011775 -0.2476231 -0.2468089 -0.13077071
0001d0 09 b1 d4 3d fc 7b b3 bc 02 c3 5a 3d 47 ac 24 3e
       0.10385329 -0.021909706 0.05340863 0.16081344
0001e0 d6 0f ed bd 26 d2 fa bb 6d 91 a5 3e de 27 46 bb
       -0.11575286 -0.007654446 0.32337514 -0.0030236165
0001f0 7b 36 88 be e6 42 dd bb 46 d9 e6 bc d6 c0 b2 3c
       -0.26604065 -0.0067523597 -0.028179776 0.021820467
000200 79 f8 4e 3c 32 b9 fb bd 88 3c 68 be 58 0d a6 3d
       0.012632483 -0.122911826 -0.22679341 0.08108014
000210 a2 fa 29 be 61 0b 80 be c7 d9 8e bc 81 b2 34 be
       -0.16599515 -0.2500868 -0.017437829 -0.17646219
000220 4f 92 8c 3b cb 70 7c bd da 7d 9c bd 9e f6 14 be
       0.0042899023 -0.061631005 -0.07641192 -0.14547202
000230 4e 4a bf 3d 20 63 0d 3c d6 b6 b5 be 24 15 ed 3b
       0.09340344 0.00862959 -0.35491055 0.007235186
000240 ba 4b 85 bd e3 97 4e 3c 3f 5c 21 be 5e a3 6b bd
       -0.06508584 0.012609455 -0.15757845 -0.057528846
000250 84 4d 9d be c1 88 80 be 1b 42 11 3d 0d ab 43 bc
       -0.30723202 -0.25104335 0.035463434 -0.011942637
000260 53 46 d5 bd 47 fd 64 be 96 cb 3b bc 1f ec c9 bd
       -0.10413804 -0.22362243 -0.011462113 -0.0985949
000270 8b ac 61 bd 49 1f 72 be 4c 7a 41 bc 73 82 e9 bb
       -0.05509619 -0.23644747 -0.011808943 -0.0071261465
000280 cf ad be 3d 47 90 a7 be 78 ce 46 be d0 45 8c bd
       0.09310495 -0.32727262 -0.19414699 -0.06849253
000290 0b a8 a5 be 06 7f 25 be fc b4 8f be 6f f4 a3 be
       -0.3235477 -0.16161737 -0.28067768 -0.32022426
0002a0 58 b5 3e be cc ee ae 3d 34 b5 a2 be f3 1c 3b be
       -0.18623865 0.08541641 -0.31778872 -0.18272762
0002b0 5f 17 76 bd ec 2c 68 be 04 10 65 bd 22 7f b8 bc
       -0.060080882 -0.22673386 -0.055923477 -0.02252156
0002c0 b7 27 b3 be 23 29 90 bc b0 2c 65 be 30 27 c7 3d
       -0.34991238 -0.01759774 -0.22380328 0.09724271
0002d0 3e dd 23 bd 50 a2 a3 3d 6c bf 24 be 5e 90 7b bd
       -0.040005915 0.07989943 -0.16088647 -0.061416976
0002e0 4e 12 e2 bd d1 e2 5d be 07 5c 9b 3d 27 75 a4 be
       -0.110386476 -0.21668555 0.07585912 -0.3212063
0002f0 3d 06 68 bd 74 f3 f8 b9 ee 5b 24 3e ed f2 f8 3d
       -0.056646574 -0.00047483633 0.16050693 0.121557094
000300 0c 15 88 bc d4 00 94 bd 01 17 ad bc 52 06 d8 3d
       -0.016611598 -0.072267205 -0.021129133 0.105480805
000310 8e 9a 48 3e 1f e9 3b be 35 e1 e6 bd 75 e0 80 be
       0.19590208 -0.18350647 -0.112734236 -0.25171247
000320 6a 7e 41 3e 1d 97 c4 bd 80 60 d2 3d 68 3e 8c 3d
       0.1889588 -0.09599135 0.10272312 0.068478405
000330 ea d2 61 bd 84 74 22 bd 5f dd ed 3d 0c f4 bb be
       -0.055132784 -0.0396619 0.11614489 -0.3670963
000340 0e 7e 2e 3e 88 99 82 be 4c ca 56 bc 43 73 da 3d
       0.17040274 -0.2550776 -0.013109755 0.10666516
000350 d6 e2 a8 3c 09 12 ec 3d 16 3e 32 bc b9 e3 ed bd
       0.020615976 0.115268774 -0.01087906 -0.116157
000360 93 54 4e bd db 70 a7 3d bb 13 67 be b0 81 90 be
       -0.050373625 0.08175822 -0.2256612 -0.28223944
000370 df a6 37 3d d4 7e aa 3d 69 f2 4f be b8 70 06 bc
       0.044836875 0.08324972 -0.20307316 -0.008205585
000380 13 6d bb 3d 0d 3f fe be dd 5c 89 bd 0f 82 b8 bd
       0.09151664 -0.4965748 -0.067071654 -0.09009182
000390 15 fc d4 bd d1 21 f4 bd 60 eb 19 bd fb 7e 94 3d
       -0.10399643 -0.119205125 -0.037577987 0.07250782
0003a0 63 23 c8 be 61 32 9c 3c 5c 14 01 be c9 67 91 be
       -0.39089498 0.019066991 -0.12605423 -0.28399494
0003b0 10 94 23 be f5 cb 91 bd 64 f1 a0 bd 14 e0 f5 bd
       -0.1597445 -0.0711898 -0.078585416 -0.1200563
0003c0 0c 40 25 be a1 59 1b be 99 ac a3 bd 50 3c 71 be
       -0.16137713 -0.1517091 -0.07991905 -0.23558164
0003d0 de a8 d7 bc 67 6b b8 bd 17 07 17 3c 75 bd f9 bc
       -0.02632564 -0.0900486 0.009217999 -0.030485848
0003e0 85 69 2f 3e 2a fe 06 3e ed 07 91 be 0f e5 7a bd
       0.17130096 0.13182893 -0.2832636 -0.061253604
0003f0 d3 6c 8c be 0b bf d2 be a9 69 ff bc c0 4a cf bd
       -0.27426776 -0.4116138 -0.031178312 -0.10121679

3.weight f4 [128, 256]
000000 26 b2 bb be 82 0f a4 be 8d e6 b5 be 82 6b ff bd
       -0.36659354 -0.32043082 -0.3552746 -0.12471677
000010 13 da ad bd 1b 17 98 be 59 83 d0 be 37 f2 e6 3c
       -0.0848886 -0.29705128 -0.4072521 0.028191669
000020 37 8a b1 be a5 ed 26 be ca 19 e8 bd 17 8a 99 3d
       -0.34675762 -0.16301592 -0.11333044 0.07497042
000030 4b f2 14 be 66 e6 44 be a0 d8 7b bd 25 6d 0c bc
       -0.14545552 -0.19228515 -0.061485887 -0.008570944
000040 0d ba de 3c c5 e7 6a 3e 7e 65 e9 be 83 d9 f6 3d
       0.027188325 0.22939976 -0.45585245 0.12053206
000050 e2 e2 65 be a2 c0 53 3d c1 41 62 bd f5 31 9e bd
       -0.2244983 0.05169738 -0.05523849 -0.07724372
000060 8e 43 f6 bc 9d b8 a7 bd 24 56 82 be e3 cd a4 3c
       -0.03006151 -0.08189509 -0.25456345 0.020117706
000070 c2 99 97 3d 0c 83 18 bd a5 7c 0f 3b 90 8d ac be
       0.07402374 -0.03723435 0.0021894362 -0.33701754
000080 40 81 bf be e8 91 a6 3e 2a ef 43 3d 73 fa 90 bc
       -0.37403297 0.32533193 0.047835506 -0.017697548
000090 49 0f 9c 3d 74 b5 f8 bb ad 3c 27 3e 4f 09 5e be
       0.07620103 -0.0075899903 0.1633174 -0.21683238
0000a0 98 cd e5 bc 48 6a 09 be 26 c9 86 3d ac 47 b4 3d
       -0.028052136 -0.1341945 0.06581335 0.08802733
0000b0 45 2a c7 be ea 59 04 be 0e 5f 85 be dd 9e 57 bd
       -0.38899437 -0.12924924 -0.26049083 -0.05264174
0000c0 e2 bd dc bd 1b c5 84 3e 36 43 76 be 65 ac 01 be
       -0.10778405 0.2593163 -0.24049076 -0.1266342
0000d0 38 29 95 3d 58 b7 32 3e aa 70 0c bf 5a 52 01 bf
       0.072832525 0.17452753 -0.5485941 -0.50516284
0000e0 ba 10 1b 3c 25 2f c9 be 78 52 2d bd 80 0c 05 3e
       0.009464437 -0.3929378 -0.042314976 0.1299305
0000f0 a8 71 6b 3e a2 ed 61 3e 7a 74 ad 3d 27 92 32 be
       0.22992575 0.22063306 0.08469482 -0.17438565
000100 10 9c b4 be 67 a7 f2 be 65 21 72 bc b4 36 b4 be
       -0.35275316 -0.47393343 -0.01477847 -0.35197985
000110 fc bb c0 be 9b 17 a2 be a5 65 fa bd ca c1 ed be
       -0.3764342 -0.31658635 -0.122264184 -0.46436912
000120 db 7f 15 3c b9 3e 60 3c 51 48 0f be 72 21 d0 be
       0.009124721 0.013686829 -0.1399243 -0.40650517
000130 26 aa 08 be c2 97 9f be 6f c8 f4 bd e9 f0 0d 3e
       -0.13346156 -0.3117047 -0.11952292 0.13861431
000140 92 de 99 be 81 e1 36 3d 86 3d 6b 3c d6 39 2e be
       -0.3005262 0.04464865 0.01435793 -0.1701425
000150 05 9c c0 bd 7a d0 19 be 86 dc 4d be 69 9d 91 bc
       -0.09404758 -0.15020934 -0.20103654 -0.017775254
000160 09 f1 78 3e cc 9f e5 3d 08 b2 19 be 12 6c 0a be
       0.24310698 0.112121195 -0.1500932 -0.13517788
000170 ba b2 1e 3e 1c d8 e8 be 70 25 e7 3d 44 c2 0c be
       0.15497866 -0.45477378 0.112864375 -0.13745981
000180 3f 99 77 3c 3c 5b 25 3e 5b 18 10 be d7 15 90 3d
       0.01511222 0.16148084 -0.14071791 0.070354156
000190 0d f6 82 be bb 53 95 be 9c 7d a6 bd 95 37 5b bd
       -0.25578347 -0.29165444 -0.08129427 -0.053519804
0001a0 b1 ef 1e 3e 7c d5 0d be 6e 88 00 be f7 1c cc bd
       0.15521123 -0.13850969 -0.12552044 -0.09966462
0001b0 40 47 89 be 97 c5 7a 3d 05 86 4a be 0f 41 85 be
       -0.26812172 0.061223593 -0.19777687 -0.26026198
0001c0 99 24 31 3d 23 d1 f4 bd d5 0d 2a 3e 66 e9 01 3e
       0.043247793 -0.11953952 0.16606839 0.1268669
0001d0 82 f2 24 be fd 21 40 3e 2d 83 e8 be e8 f8 b2 bd
       -0.16108134 0.18762966 -0.4541258 -0.08738881
0001e0 0b ac b3 be e5 ac a7 3c e8 9a 3e 3a 65 e4 9e 3c
       -0.35092196 0.020468185 0.00072710076 0.019396016
0001f0 a7 35 1d 3e 6e b7 19 3c 98 d0 6c bc 3f 73 8b be
       0.15352498 0.009382112 -0.0144540295 -0.27236363
000200 29 e2 57 be 9b 99 9a 3d 02 bd da be 2d e9 34 be
       -0.21082367 0.07548829 -0.42722327 -0.17667075
000210 c0 c6 3a 3b 6e 43 48 bd 6c b8 2c be f9 d2 b2 be
       0.0028499812 -0.04889243 -0.16867226 -0.34926584
000220 31 ad a3 3e 5d 62 a7 be 3c ab 03 bd 01 a8 cf bc
       0.31968072 -0.32692233 -0.032145724 -0.025348665
000230 40 9e 5e 3d 72 bf 4a 3d da 23 1c 3d 3c b1 17 3c
       0.054350138 0.049498983 0.03812013 0.009258565
000240 52 5e 44 3d 55 c1 3a bd 6e 40 9d be 55 26 66 be
       0.047941513 -0.045594532 -0.30713218 -0.2247556
000250 b2 7d bf 3c 41 d0 a3 39 06 6e 96 be 83 7a ab 3b
       0.023375366 0.00031244944 -0.29380816 0.0052331104
000260 43 50 8e 3c 9b 36 19 3d 23 64 34 3d f9 0b 1b be
       0.017372256 0.03740559 0.04404081 -0.15141286
000270 a5 a8 73 be 62 47 b9 3d bf 3f 70 3d 48 90 a8 3e
       -0.23794802 0.09046818 0.058654543 0.32922578
000280 e8 71 91 be 35 79 8c bd 75 de 8f be 9a e0 fd 3d
       -0.28407216 -0.06859056 -0.2809941 0.12396355
000290 89 2e 03 be ef f3 47 be 42 75 36 bb 9b bf 70 be
       -0.1281072 -0.19526647 -0.0027840887 -0.23510592
0002a0 81 b6 07 3e 90 11 08 3e 67 1e 4b 3e 23 d9 c5 be
       0.13253213 0.1328795 0.19835816 -0.38642225
0002b0 ee 99 06 be 79 93 b3 3d 5d 3a 2f be f4 7d 29 3d
       -0.13144657 0.087683626 -0.17112108 0.041379884
0002c0 a3 af 95 3d 51 49 da bd 07 27 02 bd 64 b0 6b bc
       0.07308891 -0.10658515 -0.0317755 -0.0143853165
0002d0 94 ba be be 27 e7 d4 3d 07 95 4e 3d ff bd 57 3d
       -0.37251723 0.10395651 0.050435092 0.05267143
0002e0 00 5e 3d be 11 52 8d 3c 79 47 de 3d a5 ce 4b 3c
       -0.1849289 0.017251046 0.10853476 0.012439405
0002f0 90 7d 67 3d 3f 5e 57 bc 86 de 26 bd 0b 4a e7 be
       0.05651623 -0.013145029 -0.04073956 -0.45173678
000300 ee 76 6d 3d c7 e4 7e 3c 1e 60 51 bd 65 05 96 be
       0.05797475 0.015557474 -0.051117055 -0.2930099
000310 db e9 a3 bd eb 3e 15 be d5 d6 e4 3a d3 eb d7 be
       -0.08003589 -0.14574783 0.0017459044 -0.42172107
000320 d1 30 7d be 66 86 99 be 83 51 e8 be 21 76 4b be
       -0.24725653 -0.2998535 -0.45374689 -0.19869281
000330 9d 4a 93 3d 62 2c c1 3e f2 73 13 bc 68 1b 8f bd
       0.07191966 0.37729174 -0.0089998115 -0.06987649
000340 12 39 62 bb 32 86 98 be 1a ac ba b8 78 06 6b 3d
       -0.003451888 -0.29789883 -8.9012276e-05 0.057379216
000350 6f 3d 3a be 11 08 78 bd 3c 9d e0 bc 34 09 ef bc
       -0.18187498 -0.060554568 -0.027418725 -0.029179193
000360 db dc 58 3d 97 35 48 bd fd d2 63 3c ab 56 39 bd
       0.052945 -0.048879232 0.013905284 -0.04524867
000370 9b 6f 39 be 95 ff 9f bd f3 2b 2d be 93 7c c4 3c
       -0.1810898 -0.0781242 -0.16911297 0.023985183
000380 21 6f eb bd 4c 6a b3 be c7 96 94 be c3 81 5d 3e
       -0.114958055 -0.35042036 -0.29021284 0.21631531
000390 04 a9 10 be a7 24 c0 bd 91 1c 6e 3d b9 88 9d 3e
       -0.14126974 -0.09381991 0.05813271 0.30768374
0003a0 68 30 13 be 61 5a 77 3e b0 ae b4 bd 28 f2 0d bf
       -0.14373934 0.2415557 -0.088223815 -0.55447626
0003b0 e0 37 2d be 42 38 d5 be 97 b5 82 bd 8e 49 01 be
       -0.16915846 -0.41644484 -0.06382292 -0.12625715
0003c0 6d c4 08 bd 43 fb ea bd ca 76 7a be d7 6b f7 3c
       -0.03339045 -0.114737056 -0.24459377 0.03020279
0003d0 79 84 64 be 0c b7 b3 be c3 66 05 3e f0 f6 75 3d
       -0.2231616 -0.3510059 0.13027482 0.06004995
0003e0 24 10 db be df 1a 69 3d 76 56 07 3d f8 1d c4 be
       -0.42785752 0.056910392 0.03304144 -0.38304114
0003f0 f9 d5 ea bd 32 d7 24 be da d9 90 bd 55 7b 26 3e
       -0.11466593 -0.16097715 -0.07072802 0.16257985

3.bias f4 [128]
000000 1a fe dd 3d 58 2b 34 3e 39 7d 78 be 11 f2 e2 3d
       0.10839482 0.1759466 -0.24266519 0.11081327
000010 94 d1 27 be c5 ea 8d bd ea c1 58 be 0a bc eb 3c
       -0.16388541 -0.06929544 -0.21167722 0.028776187
000020 b2 16 2d be fd b7 00 bf c8 e3 3b 3f af e8 b7 3e
       -0.16903189 -0.50280744 0.7339444 0.3591971
000030 d0 f2 32 3f 22 e1 ea bd ef d3 2f 3e 01 7f 7d 3d
       0.6990175 -0.11468722 0.1717069 0.0618887
000040 83 e4 88 3e f9 05 77 be 03 75 33 be 56 66 71 3e
       0.2673684 -0.24123372 -0.17525105 0.23574194
000050 81 79 b8 3d 72 f8 9d bd 37 b0 3c bd 9a 62 85 3e
       0.0900755 -0.07713403 -0.04606649 0.2605179
000060 50 ff f4 3e f3 10 a3 be a4 64 82 3e fb b4 be 3e
       0.47851038 -0.3184887 0.25467408 0.37247452
000070 77 20 2c 3e 38 99 ad 3d 72 63 bc bd ad 27 de be
       0.1680926 0.0847649 -0.09198655 -0.43389645
000080 fe 0e 16 be 7c 7f 63 3d 1d a7 95 be 1a 3c f7 3e
       -0.14654157 0.0555415 -0.2922906 0.4828804
000090 36 08 aa be 30 7d ea 3d 3d 90 15 bf fa a7 5f 3e
       -0.3320939 0.11449659 -0.58423215 0.21841422
0000a0 13 34 c2 be 76 4d 94 3e 45 8b 3c 3c 7e f4 54 3d
       -0.37930354 0.28965348 0.011507814 0.05199098
0000b0 39 bd 12 be 6c 25 b1 be 5c 0e 80 be 7e 83 34 3d
       -0.14329995 -0.34598863 -0.25010955 0.044070713
0000c0 2b 20 b0 be 71 f5 65 3e 29 c0 af bd 59 f7 ac 3e
       -0.34399542 0.2245691 -0.085815735 0.3378246
0000d0 ce 7c ab be d1 04 59 be 61 9e 04 be 97 41 db 3e
       -0.33493656 -0.21193244 -0.12951042 0.4282348
0000e0 7f cc 01 bf c0 2c c7 3b 99 ca e0 bd 67 93 a5 be
       -0.5070266 0.0060783327 -0.109761424 -0.32339022
0000f0 6a 6d c2 be 4d f4 93 3a 44 32 55 3e f6 4e c4 be
       -0.379741 0.0011288017 0.20819956 -0.38341492
000100 7e 57 44 3e 45 5a 21 be bf b4 2b bd e5 13 a0 3e
       0.19174 -0.15757091 -0.04192042 0.31265178
000110 ea 01 7c be 83 86 89 3d 6f eb be bd 2a bf d8 be
       -0.24610105 0.06715109 -0.09322249 -0.42333347
000120 db 70 05 3e b0 92 09 3d a3 b2 c3 bd 16 70 66 bd
       0.13031332 0.033587158 -0.095555566 -0.056259237
000130 54 2d 86 be 58 c6 19 be f5 89 f8 bd 43 75 e9 3e
       -0.26206458 -0.15017068 -0.12135688 0.45597276
000140 53 2d a7 be 74 b3 a2 be 57 9a c3 3d d4 f0 20 3f
       -0.32651767 -0.31777537 0.09550922 0.62867475
000150 f6 35 87 bd 45 15 b0 3c 07 e2 14 3f 1d a1 31 be
       -0.06602089 0.021494517 0.5815739 -0.17346616
000160 46 6f cc 3a 02 2f fe be 45 ee 86 be e4 41 c7 bd
       0.0015597127 -0.4964524 -0.2635366 -0.097293645
000170 bd ad 12 be 44 db 2b 3e e6 fb cf be b3 7c b2 bd
       -0.14324088 0.16782862 -0.4062187 -0.08715191
000180 0d a7 e9 3d bd 63 4c bd 86 e9 65 be da 36 b6 3e
       0.114088155 -0.049899805 -0.22452363 0.35588723
000190 88 99 20 3f 5a 1b 6d 3e ce b4 a3 bc 2a bd f9 be
       0.6273427 0.23154965 -0.019983675 -0.48777133
0001a0 83 07 18 3e 1b 43 f8 be ef 71 90 be c1 d3 c3 3d
       0.14846615 -0.48488697 -0.28211924 0.09561873
0001b0 a2 c2 21 3e 02 61 48 3e f3 0c 01 3e e6 9a c2 3d
       0.15796903 0.19568256 0.12602596 0.09502201
0001c0 e8 92 3c 3e af c2 25 3e 89 b1 4b 3c 8c 2d 01 3e
       0.18415415 0.16187547 0.012432464 0.12615031
0001d0 cf a2 40 3e 3e 70 d6 3e b4 d8 55 3c 9d c8 79 3d
       0.18812107 0.4188251 0.013052154 0.060982335
0001e0 67 89 5f 3e 02 c8 b4 3d ca 15 46 3e b4 d6 c5 3e
       0.21829759 0.08827211 0.1934425 0.38640368
0001f0 d0 d8 a9 3d c9 35 05 3e 71 25 d7 3d 9f 71 f4 be
       0.08293307 0.13008799 0.10505188 -0.47742936

6.weight f4 [64, 128]
000000 af 69 25 bd a5 0e 83 bd 1a a9 14 3d 1c 59 44 b8
       -0.04038399 -0.063992776 0.03629408 -4.681303e-05
000010 8d 33 70 be fc 00 3b 3d a5 84 6e bd 12 a4 6d 3d
       -0.23457165 0.045655236 -0.05823197 0.058017798
000020 87 36 12 bf 00 82 45 be 1a 71 04 3e 34 1c 87 3e
       -0.5711445 -0.19287872 0.1293377 0.26388705
000030 87 89 60 3e 6e bc 06 bf e8 4e e2 bc 9a ca b6 bd
       0.21927463 -0.5263127 -0.027625516 -0.08925362
000040 8a b2 03 be 9c a4 c8 3b b2 b0 8c 3b c9 38 2c 3e
       -0.12861076 0.0061231386 0.0042935247 0.16818537
000050 1b ca b0 3d b1 0f 9e be ea a6 f4 be b6 b8 a7 3d
       0.086322986 -0.30871347 -0.47783595 0.08189528
000060 5b d8 ab 3d 9b d3 2d be 00 7c 71 3e c6 00 9e 3d
       0.08390876 -0.16975252 0.23582458 0.07714991
000070 9d 4a 8d 3b 70 3e 83 be 26 b8 11 bd 49 77 6b be
       0.004311873 -0.25633574 -0.03557601 -0.22994722
000080 cf 1e 79 bd e8 10 17 bb e1 86 25 3d 84 26 82 3d
       -0.060820397 -0.0023050848 0.040411834 0.063550025
000090 57 ec fb bd 2b 59 2e 3d 54 d8 01 be 0a 1f 62 be
       -0.123009376 0.042565506 -0.12680179 -0.22082153
0000a0 0f da 0c 3d 77 3e 82 bd 03 79 13 bf 2e 4f 77 be
       0.034387644 -0.063595705 -0.57606524 -0.24151298
0000b0 ad 59 a3 be 6c 1a cf 3b d0 2a ce 3d f4 b1 67 bd
       -0.31904355 0.0063202884 0.100667596 -0.056566194
0000c0 a7 56 69 3d 3d 63 c6 3d d6 95 8b 3c ea 45 07 3e
       0.056967404 0.09686897 0.01703922 0.13210264
0000d0 9e f4 a5 3d 05 76 f7 3c 05 20 b8 3c a5 34 fb 3d
       0.08103298 0.030207643 0.022476206 0.122659005
0000e0 6a 2a f0 ba d6 4b b3 bc 2e 8d b2 3c 72 7f dd bc
       -0.0018323187 -0.021886747 0.021795835 -0.02703831
0000f0 76 a8 a2 be d7 0f 90 3e f0 dc 25 3e 22 c4 1b be
       -0.3176915 0.28137085 0.16197562 -0.15211537
000100 50 c2 dd 3c 62 60 b9 3d 82 7c ba be 51 0d 25 3e
       0.027070194 0.09051587 -0.36423117 0.16118361
000110 39 67 e4 be cb 15 24 3d df 11 e7 bc 16 a7 ff bd
       -0.44610003 0.040059846 -0.028206764 -0.12483041
000120 3d 6a f4 3b 0d 57 3a bd 79 99 84 3d 87 86 ce be
       0.0074589537 -0.045493174 0.06474585 -0.4033701
000130 9b f2 62 3e 1d e1 16 be 9a 20 02 bd 57 52 13 bd
       0.22162859 -0.14734311 -0.031769373 -0.035967197
000140 99 5a 7c bc 15 83 b0 bc 29 54 61 3e b6 e5 ab 3d
       -0.01540246 -0.02154688 0.22004761 0.08393423
000150 55 2c 9f be 6f f6 52 3d c7 ca 02 be 53 14 01 bd
       -0.3108851 0.05150455 -0.12772666 -0.031513523
000160 a5 81 15 3e b3 af a6 3d f7 bf 4c be 72 24 7b 3d
       0.14600237 0.08138981 -0.19995104 0.061314054
000170 ba 1f eb bd de 41 af bc 0b 5c 92 be 79 39 35 3e
       -0.11480661 -0.021393713 -0.28585848 0.17697705
000180 ab a7 37 3d 8b f2 9c bd 47 68 38 3d f3 db 98 bc
       0.044837635 -0.07663449 0.04502132 -0.018659567
000190 89 5a b3 3d 73 9e 80 be ed 00 59 3d a7 33 81 3d
       0.087575026 -0.25120887 0.0529794 0.0630868
0001a0 04 aa d3 3c 84 db 5a 3e 2d 97 0b bc 26 8f 14 3c
       0.025837906 0.21372801 -0.00851993 0.009067332
0001b0 9a 0d e2 be 3e a0 3e 3d 34 a7 d0 3d 13 ac cb 3c
       -0.44151002 0.046539538 0.101881415 0.024862325
0001c0 4c 95 d3 bc d2 b5 86 3d 3f 3a f4 3d 9d 3d f0 3c
       -0.025828026 0.06577648 0.11925172 0.029326255
0001d0 03 1a 07 3e 70 16 4b 3e 8d 2d 70 bd e7 38 b7 3b
       0.13193516 0.19832778 -0.05863719 0.0055915
0001e0 ea 9c 8a 3c cb 10 a0 3c 27 e7 24 3e 93 d1 2d 3e
       0.016920526 0.019539258 0.16103803 0.16974477
0001f0 e9 23 6d be c3 14 ac 3e 33 ed 25 be 15 a9 a8 3d
       -0.2315823 0.3360959 -0.16203766 0.08235375
000200 ad 3d cc be 95 a3 25 3d a9 9d 9d be 79 3c 0c 3e
       -0.39890805 0.040439207 -0.30784348 0.13694943
000210 53 03 4f 3d dc d7 21 bc 89 6e 8a 3e 98 9b 01 3d
       0.05054028 -0.009878125 0.27037457 0.031642526
000220 7f f3 b3 3d 48 86 88 bc 77 26 55 3d 87 2b bc bd
       0.087866776 -0.016665593 0.052038636 -0.0918799
000230 7c 55 0e bb 40 a3 fb 3d 31 fc 9d bd 74 db dc be
       -0.0021718433 0.12286997 -0.07714117 -0.4313618
000240 cc c0 5f 3e 5b e4 6e 3d 08 60 83 be c2 8b 54 bd
       0.2185089 0.058323245 -0.25659204 -0.051891096
000250 08 7a d0 bd 21 36 2d 3e 35 9c 6b 3d 2e b7 f4 3a
       -0.101795256 0.1691518 0.057522018 0.0018670314
000260 e0 2f 65 3d bb 63 96 bd 23 90 8b bd 75 8a 03 be
       0.05595386 -0.07343241 -0.06814601 -0.12845786
000270 d3 ea ae be 4f ac 91 3e f6 35 26 bd 7d 88 f5 3d
       -0.34163532 0.28451774 -0.040578805 0.11988924
000280 91 b4 2a 3d 6a 62 30 3e f4 e4 05 3e 75 bb 9b 3d
       0.041676108 0.17225042 0.1307562 0.07604114
000290 85 27 37 bd 4a b2 c0 3d 0d da 6f bd 62 bf 8a bc
       -0.044715423 0.09409006 -0.05855756 -0.016936962
0002a0 4e 83 65 bd 58 c0 9c 3d 9b 82 75 3b d9 b4 17 3d
       -0.056033425 0.07653874 0.003746188 0.037037704
0002b0 46 0d 4b bd 3b ed 62 be 29 ac 6f bd 20 0d c4 be
       -0.049573205 -0.22160809 -0.058513794 -0.38291264
0002c0 81 0d 9d be 39 07 a1 be 7b e1 1d be d0 bf ee be
       -0.30674365 -0.31450823 -0.15418045 -0.46630716
0002d0 d9 32 88 3d 2a ea b1 bd 12 c8 c5 3d 6c ce 18 be
       0.066503234 -0.086872414 0.09657301 -0.14922494
0002e0 cd f0 17 be bd ec 7a be f3 22 13 bf 80 5f 8e 3c
       -0.14837952 -0.24504371 -0.57475203 0.017379522
0002f0 a2 36 a9 3c 4d a6 b4 3c 88 11 a1 3d 97 69 df bc
       0.020655934 0.022051955 0.07864672 -0.027272029
000300 a4 b6 08 3e ab 3e ae bd 73 04 83 3d 7f 93 23 3d
       0.13350922 -0.08508047 0.06397333 0.039935585
000310 b6 7d 97 3e 35 24 f5 3c 6a 73 77 3c 3e 94 3a bc
       0.29588097 0.029924491 0.0151032 -0.011387883
000320 2a 1b 61 be ce f7 10 3e 93 19 e7 be 5d 4f 9c 3e
       -0.21983019 0.1415703 -0.451367 0.305293
000330 a1 5a 45 be 4a 13 03 be 7e 03 85 3c e2 9d a1 bd
       -0.19272853 -0.12800327 0.016237017 -0.07891442
000340 d1 6f 0a bd 3f 2a 1d be 4e 9d 26 3d 39 a7 96 3d
       -0.033798043 -0.15348147 0.04067736 0.07356114
000350 3d bb 1d 3e 30 ed c3 bc a5 c7 1e 3e 4d 90 5a 3d
       0.15403457 -0.02391681 0.15505846 0.053360272
000360 ce 6f 04 3d de 69 65 be 5a cc 0a bc f2 bb 31 bd
       0.032333188 -0.22403666 -0.008471573 -0.04339213
000370 23 97 0c 3e 29 c7 4d bd d6 a1 96 3d 8c a3 6b be
       0.13729529 -0.050238762 0.073550865 -0.23011607
000380 f3 64 25 3d a4 29 30 3e 51 39 62 bd 63 dd 33 bd
       0.040379476 0.17203385 -0.055230442 -0.043912303
000390 75 ae 35 3d 5d b0 39 3e 79 22 1e bd 08 d8 97 3c
       0.04435583 0.18133684 -0.038607094 0.018535629
0003a0 2a e1 3b be 76 98 c2 be ad 65 ef bc a8 1a 20 be
       -0.18347612 -0.38006943 -0.029223287 -0.15635169
0003b0 4e 18 08 3d a5 7c cd 3c 35 9d 68 be f9 04 49 3d
       0.033226304 0.02508385 -0.2271622 0.049077008
0003c0 54 06 15 3d df b3 8f 3d 8b 59 4b 3e 6f 66 1c bf
       0.036382988 0.070167296 0.19858377 -0.610938
0003d0 e2 76 e5 bd dc 7c ec be e4 78 75 bd 01 ae 0e be
       -0.11204316 -0.4618901 -0.059929743 -0.13933565
0003e0 e6 bd de be 64 11 4e be fe 20 fc bd 32 bf 02 3d
       -0.43504256 -0.20123821 -0.1231098 0.03192062
0003f0 59 ca 21 3e 78 1f 52 be d3 4c 8a be fc df 90 be
       0.15799846 -0.20519817 -0.27011737 -0.28295887

6.bias f4 [64]
000000 13 5c e8 3e 67 2f 84 3e 9a c6 ad 3e 4c 97 9a 3e
       0.45382747 0.25817415 0.33940583 0.30193555
000010 09 ba 75 3e 7f cc 3b 3e 30 4c 3a 3f 51 1d a2 3e
       0.23996748 0.18339728 0.727725 0.31662992
000020 b8 91 d3 3e 22 bc 2f 3e b3 8f e7 3d 8d 7b 2e 3e
       0.41322112 0.1716161 0.11306705 0.17039318
000030 28 22 80 3e 83 fe 55 3e 67 e3 b9 3e ad c0 c5 3e
       0.2502606 0.2089787 0.36306307 0.38623562
000040 44 d5 74 3e 4d ab 02 3e 2e 97 4a 3e 80 e2 8e 3e
       0.2390948 0.12760659 0.19784233 0.2790718
000050 82 17 81 3e cf 0c 67 3e c5 1e cf 3d 81 7b 7b 3e
       0.25213248 0.2256348 0.10113291 0.24558832
000060 8a de d3 3e e9 49 ac 3e a7 73 a9 3e ae 21 30 3e
       0.4138072 0.3365014 0.33096048 0.17200348
000070 1f bd b8 3e cf 12 88 3e 3b 0c cf 3e 4d 12 aa 3e
       0.36081788 0.2657685 0.4043902 0.33217087
000080 c6 cc ae 3e f8 22 9c 3e 95 67 c1 3e 3c 12 b4 3e
       0.34140605 0.3049543 0.3777434 0.35170162
000090 d5 60 4f 3e 3e 3f cf 3d 3d 7c ee 3e db 7f 42 3e
       0.20251782 0.10119484 0.4657916 0.18994085
0000a0 e7 33 93 3e b9 57 96 3e 62 72 e3 3d fd 5e 99 3e
       0.28750536 0.29363802 0.11105801 0.29955283
0000b0 ae 31 6b 3e 9e cc 95 3e 95 12 f4 3e 14 33 0b 3f
       0.2296817 0.29257673 0.47670427 0.54374814
0000c0 85 fb aa 3e 86 51 12 3e 3a 49 84 3e 5b 47 f0 3e
       0.3339502 0.14288911 0.25837117 0.4692944
0000d0 a8 2a bf 3e 9a 36 bc 3e 89 f2 37 3e 2c 9f a4 3e
       0.37337232 0.36760408 0.17963614 0.32152689
0000e0 05 2d 66 3e 20 a7 bf 3e d9 2c 9e 3e 54 88 c7 3e
       0.22478111 0.37432194 0.3089359 0.38971198
0000f0 f1 4e ca 3e b9 54 9f 3e e5 c9 58 3e 9e 43 e6 3e
       0.39513353 0.31119326 0.21170767 0.44973463

9.weight f4 [10, 64]
000000 60 e8 c9 3d 83 14 3f be 86 ba b7 be 2e b6 d1 3d
       0.09858775 -0.18660168 -0.35884494 0.10239826
000010 9a 67 db 3d 19 e1 f1 be 93 5a 01 3d b9 8b 24 3e
       0.1071312 -0.47242048 0.03158052 0.16068925
000020 2b 27 b9 3d 18 a1 be 3d 86 94 ad 3d 0b 2f a3 3d
       0.09040674 0.0930807 0.08475594 0.07967957
000030 8f 4b c0 be 6e 8a 9e 3d cf 96 14 be 6f e6 ff be
       -0.37557647 0.07741247 -0.14510654 -0.49980494
000040 ab 7b 9c be 98 0f 03 3e 93 59 19 3d 84 12 24 be
       -0.305631 0.12798917 0.03743894 -0.16022688
000050 d7 d3 8e be 6b b2 d8 be 86 af 4d be b3 19 8e 3d
       -0.27895996 -0.42323622 -0.20086488 0.069384955
000060 5f 89 4c be bd e4 4b be 02 4a a7 be fb 1d ca be
       -0.19974278 -0.19911475 -0.3267365 -0.39475998
000070 02 01 d7 3d 62 4b e0 be e0 51 08 be a0 0e a7 be
       0.10498239 -0.43807513 -0.13312483 -0.32628345
000080 13 2f 84 3d 90 26 b4 3d 79 80 cb be 37 50 34 be
       0.06454291 0.08796418 -0.39746454 -0.17608725
000090 48 a9 6c 3d 49 a8 34 3d 0f a1 88 bd ae 25 9c be
       0.057778627 0.0441058 -0.066713445 -0.30497497
0000a0 63 67 81 be df 07 6b 3d 37 a7 85 3d 2a 23 5b be
       -0.2527419 0.057380553 0.06526034 -0.21400133
0000b0 c0 16 93 3d 44 1f 61 be fa 92 a9 be fc 1d e9 3d
       0.071820736 -0.21984583 -0.33119947 0.11382672
0000c0 df ef 53 be 4c b8 f1 3d 5a 46 fc bd 5a 84 e4 3d
       -0.20696972 0.1180273 -0.12318106 0.111580566
0000d0 ef eb 89 3d df d7 80 be 5c 8f aa 3d 74 ff 69 be
       0.06734454 -0.25164697 0.08328125 -0.22851354
0000e0 58 60 3b 3d 7a 37 ae 3d 8a 75 c4 bd dc 4b 00 3e
       0.045746177 0.08506675 -0.09592731 0.12528938
0000f0 17 bd b1 be 90 3c 4b be ea f2 be be 7a c5 8e be
       -0.34714577 -0.19847322 -0.37294704 -0.27885038
000100 f6 d5 82 be 76 54 08 3e a8 7f a3 3d b4 ed 96 be
       -0.25553864 0.1331347 0.07983333 -0.29478228
000110 2d 45 b1 3d e1 32 c4 3d d1 b5 70 3d 2e 54 f2 bd
       0.08655772 0.09580017 0.058767144 -0.11832462
000120 72 24 ca be 99 37 73 3b 5f a4 db 3c 69 11 37 be
       -0.3948093 0.0037111996 0.026811777 -0.17877735
000130 99 37 ab 3d 3e c9 e8 bd 63 1b f8 3d 79 a0 5e 3d
       0.08360214 -0.11366509 0.121145986 0.054352257
000140 04 2a 32 be 4e f4 4d be 87 0b 29 be 2b ad ef 3d
       -0.1739884 -0.20112726 -0.16508304 0.11702951
000150 c2 87 c7 3d 1d f7 df 3d ed d9 b6 3d 67 38 62 be
       0.097426906 0.10935805 0.08928285 -0.22091828
000160 52 cb 3c 3d 65 2f 58 be bf ae 34 3b f2 78 39 3d
       0.04609234 -0.2111183 0.0027569977 0.045281358
000170 e1 32 ee bd 17 e3 cb 3d 35 0e e8 bc e5 5f a9 be
       -0.11630798 0.09955423 -0.028327087 -0.33080974
000180 4f bd 76 be 58 6f 56 be 4d 13 31 3d 8f 04 64 be
       -0.24095653 -0.20940912 0.043231297 -0.22267364
000190 d7 47 33 bf 40 35 75 be 45 65 e6 3d 90 d0 b0 3d
       -0.70031494 -0.23946095 0.112497844 0.0863353
0001a0 e3 14 e9 bd 61 10 68 be 64 da c6 3d 60 4b 9e be
       -0.11380937 -0.22662498 0.097096235 -0.30916882
0001b0 55 aa cd bd 7d 2f 16 3e b9 b6 a8 be 8b 46 19 be
       -0.10042254 0.14666553 -0.32951906 -0.14968316
0001c0 e6 38 9d be e1 71 e8 3d ad 11 3e be 8b f7 00 3e
       -0.30707473 0.11349846 -0.1856143 0.1259443
0001d0 4b 99 89 be fc f9 ef bd 77 a7 a2 3d d1 71 09 be
       -0.26874766 -0.117176026 0.07942098 -0.13422324
0001e0 7d a6 ab 3d cb e7 1e be 6e 63 fc bd d2 a3 6f be
       0.083813645 -0.1551811 -0.12323652 -0.23402336
0001f0 e4 4a 1c 3e 84 ee b6 3d fe bb 76 3d 55 96 2c bd
       0.15262944 0.08932212 0.060237877 -0.042135555
000200 14 9b d1 bd 60 a4 ca 3d fa db 44 be 62 0b 07 be
       -0.10234657 0.09894633 -0.1922454 -0.13187936
000210 af 13 bb 3d 17 57 cc bd 81 03 3f be 52 cc ec bd
       0.09134614 -0.099775486 -0.1865368 -0.115624085
000220 65 b2 f9 bd 0d 45 82 3d f2 1f 97 3d 5b 44 e7 3c
       -0.12192229 0.06360827 0.0737914 0.028230837
000230 6f 73 f7 3d ff d6 83 3d a9 16 da 3d 37 7b f8 be
       0.12082564 0.064374916 0.10648853 -0.48531505
000240 d8 13 13 3d a7 15 03 3e 31 f3 28 3c 93 08 bf bd
       0.035907596 0.12801228 0.010311888 -0.09327807
000250 81 ca 33 be 0a b8 b4 3d e3 04 e9 3d 52 1f 41 3d
       -0.17557718 0.08824165 0.11377885 0.04714901
000260 c6 92 6c be 8f ce e7 3d e6 85 4f be e2 0f 77 3d
       -0.23102865 0.11318695 -0.20265922 0.06031788
000270 73 90 ab bd 5d 5e 40 be 45 77 8b 3d c1 9e 71 be
       -0.08377161 -0.18785997 0.06809858 -0.23595716
000280 e4 d2 8d be e4 0a e4 bd 60 00 bc be d4 9d 93 bd
       -0.2769996 -0.1113489 -0.36719036 -0.07207838
000290 39 19 19 be a2 c5 76 be 52 2d 47 be 76 c2 06 be
       -0.14951028 -0.24098828 -0.19450882 -0.13160118
0002a0 54 98 4b be 59 a1 27 3d 0b 31 07 3e ea a2 46 be
       -0.19882327 0.040925357 0.13202302 -0.19398084
0002b0 95 f9 f8 3d 52 b2 f7 3d 60 8c 72 be ec 27 00 be
       0.12156979 0.12094559 -0.23686361 -0.12515229
0002c0 59 f6 85 3d 6c 9b f2 bd 1f 9c 04 be 7d 89 20 be
       0.06541128 -0.118460506 -0.1295018 -0.15677448
0002d0 37 59 3c 3d 79 6c a0 3d eb 8a b4 3d 46 c2 3e be
       0.04598352 0.078331895 0.08815559 -0.18628797
0002e0 d5 fa e6 3d 93 50 74 3d 0e 1c 98 3d 12 28 bf 3d
       0.11278311 0.059647154 0.07427226 0.09333815
0002f0 bd 41 fb bd d7 7f be 3d 5f ec a8 be a7 d5 c9 3d
       -0.12268398 0.09301727 -0.32992837 0.09855204
000300 50 78 c1 3d 76 5f 88 bd f4 18 68 be b4 6a 90 3d
       0.09446776 -0.06658833 -0.22665769 0.07051602
000310 04 b3 29 be 81 14 bf 3d 05 51 47 bd 5b dd 65 bd
       -0.16572195 0.09330083 -0.04866125 -0.056119304
000320 ef b6 1f be 69 7d e6 3c 18 00 7b 3d 6a c6 3b be
       -0.15597127 0.028135972 0.061279386 -0.18337408
000330 54 b8 67 3d fc 5f 2c 3d e8 33 84 be 05 3e e0 bd
       0.056572273 0.042083725 -0.2582085 -0.10949329
000340 b3 97 b7 bd 3f 23 37 be 92 55 bd 3c 77 42 05 3e
       -0.08964481 -0.17884539 0.023112092 0.13013636
000350 bf 9a 8a bd 0c 0d 0a 3e 56 f4 a3 3d c3 ec b6 3d
       -0.06767797 0.1348154 0.08005588 0.089318775
000360 7e 1b 1d be b9 82 23 3d 6d 57 5d be 4c b0 90 3d
       -0.15342519 0.03991959 -0.21615382 0.07064876
000370 9a 07 0c be 20 8e ee 3d c3 6b ba 3d e2 9d dc 3d
       -0.13674775 0.11648202 0.09102585 0.10772301
000380 54 0e 98 be 83 95 0c be 89 26 96 3d 0a f8 64 bd
       -0.29698431 -0.13728909 0.07331569 -0.05590061
000390 c9 4c 36 be 5e 7e b4 3d bd 32 bd 3d ad e7 cb 3d
       -0.17802729 0.08813165 0.09238193 0.09956298
0003a0 76 19 bd 3d 0b 0c 9a 3c a3 39 f2 bd a0 79 39 be
       0.09233372 0.01880457 -0.118273996 -0.18112803
0003b0 e7 7b c5 3d 9e 18 69 bd 7f e3 6c bb 29 82 0f bd
       0.09642773 -0.056908242 -0.003614634 -0.03503624
0003c0 1a b0 24 be 80 ab 3e bd 04 4d 10 be ea 3b b1 bd
       -0.16082802 -0.046550274 -0.14091879 -0.08654006
0003d0 b4 2f 6c be 45 01 8a 3d d3 6b e6 bd 81 a2 01 3e
       -0.23065072 0.067385234 -0.112510346 0.12659647
0003e0 33 23 d0 3d 44 4b 7a be 95 3b 3f bd 96 a5 a2 3d
       0.10162964 -0.24442774 -0.04668768 0.07941739
0003f0 2b d4 ea 3d 40 52 32 be dc 40 b6 bd 66 8e 9e 3d
       0.11466249 -0.17414188 -0.0889909 0.07742004

9.bias f4 [10]
000000 b3 d1 48 3e 6b 52 12 be 58 9b 24 be 97 52 e7 be
       0.19611244 -0.14289252 -0.16074884 -0.451802
000010 78 eb 38 be a1 b5 ba be 8d ce 83 be 16 56 62 be
       -0.18058574 -0.36466697 -0.25743523 -0.22103152
000020 27 98 41 3f 03 78 02 3e
       0.7562279 0.12741093
